Quantization/Static_QAT/quantized_train_model/model_fp32.pt (torch, 3927 bytes, 6 tensors)

l1.weight f4 [16, 10]
000000 8e 14 16 3e dc b3 38 be f8 15 f8 3e 49 1a 8f be
       0.14656278 -0.18037361 0.4845426 -0.2794974
000010 45 b0 07 3f 2a 20 1d bf 94 c6 47 3e e6 b3 2b 3f
       0.5300334 -0.61377203 0.19509345 0.6707138
000020 18 72 12 bf ff c0 8b bd d1 58 2d be e0 5b 02 bc
       -0.57205343 -0.068239205 -0.16928412 -0.007956475
000030 dd c1 88 3e 04 c1 24 3e d0 b0 65 3d 20 f6 39 be
       0.26710406 0.16089255 0.056076825 -0.18160295
000040 91 88 0b be 90 26 12 3d 18 bd 1a bd 50 e3 00 bd
       -0.13626315 0.035681307 -0.03777799 -0.031466782
000050 ee 96 4f be 51 0f b0 be 06 d2 3e 3e 09 12 62 be
       -0.20272419 -0.34386685 0.18634805 -0.22077192
000060 df c1 53 3d b8 14 82 3e 13 dd 91 3e 34 4a 2a be
       0.05169856 0.25406432 0.2848898 -0.16629869
000070 f2 50 98 bd 22 b3 1f 3d e4 0e 08 3f bb f6 cc 3e
       -0.07437314 0.038989194 0.5314772 0.4003199
000080 b5 52 09 bf a3 1e 0f be 50 d7 ba be dc ee 5a 3e
       -0.53641826 -0.1397653 -0.36492395 0.2138018
000090 31 89 10 3c 75 4b 01 be 0f a7 47 3f 5d f4 a5 3e
       0.0088217715 -0.12626441 0.77989286 0.32412997
0000a0 b0 e9 0b bd 6c 89 cd 3d a0 77 69 3d 64 d3 6a be
       -0.03415841 0.10035977 0.05699885 -0.22932202
0000b0 18 34 0e 3d 11 3b 82 3e ba 23 b9 bd 37 6d 41 be
       0.03471765 0.2543569 -0.090400174 -0.18889318
0000c0 a2 8a 2d be 19 32 96 3e e1 6c 9d 3e 68 5f a4 3d
       -0.16947415 0.29335096 0.3074713 0.0802601
0000d0 86 2e f5 bd 2a ec 4d 3e c5 48 9b be 00 9f e9 bb
       -0.11971764 0.2010962 -0.30328956 -0.00712955
0000e0 cc ce 4b be e2 81 60 be 36 05 99 bd 20 aa 48 be
       -0.19903105 -0.21924546 -0.07471697 -0.19596148
0000f0 01 ca 74 bf 83 ec f3 3d 25 18 56 bd dd a9 32 3f
       -0.95620733 0.119103454 -0.05226912 0.6979044
000100 dd ea b2 bc 05 0b 7a be 3c 5a 6c 3f e8 34 29 3d
       -0.021840507 -0.24418266 0.92325187 0.04131022
000110 c9 93 46 be 55 e3 0e 3f 61 0f 0f bf 18 4a 0e 3f
       -0.19392313 0.5581563 -0.5588284 0.5558181
000120 16 0f 02 bf 76 de c4 3d a8 7d 1d bf 8d 8b 2f 3f
       -0.5080427 0.096127436 -0.6151986 0.6857231
000130 71 08 c8 3e 6c 36 92 be e6 cc 33 3f 89 92 d8 3e
       0.3906894 -0.28557146 0.70234525 0.42299297
000140 50 32 a2 3d 76 39 6a 3e c7 81 37 be 35 c3 91 3e
       0.079197526 0.22873482 -0.179206 0.28469244
000150 78 99 0f be 94 74 fd 3d 72 d6 05 3e 64 c5 80 be
       -0.14023387 0.12375751 0.13070086 -0.25150597
000160 9d 24 9e be 80 0e 29 3d 95 51 f3 3e f1 de 86 be
       -0.3088731 0.041273594 0.4752318 -0.26341966
000170 e5 36 3a 3f 44 3f 28 be b6 c1 3c 3e 57 dc c2 be
       0.7274001 -0.16430384 0.1843327 -0.3805873
000180 e8 b7 19 3e 34 b9 45 3f 07 ba 4e be 59 da 07 3f
       0.15011561 0.7723572 -0.20188151 0.5306755
000190 11 98 35 be 6b cc 39 3f 83 a4 31 3e c8 aa 6c 3c
       -0.1773379 0.7257754 0.17347912 0.014445014
0001a0 3c 61 08 bf 1b 94 b5 3d 88 1b 0d 3f 79 d4 59 be
       -0.5327337 0.088661395 0.55120134 -0.21272458
0001b0 a7 df 19 3f 71 ed 81 be 1c 48 40 3f 58 86 58 3f
       0.6010689 -0.25376466 0.7511003 0.8457999
0001c0 ef 77 73 bd 5d 05 33 bf a8 9c 0e bf 06 d4 cb be
       -0.05944055 -0.6993006 -0.5570779 -0.398102
0001d0 52 b0 bb bd c1 f8 f9 be 81 46 1c 3f 07 76 71 3e
       -0.0916449 -0.48822597 0.6104508 0.2358018
0001e0 0e bb a2 bd 80 d8 94 3c 0a 7d 5d be 01 82 67 be
       -0.07945834 0.018169641 -0.2162973 -0.22608186
0001f0 d5 6c 9e be 4a 88 7e 3e 00 a1 b1 3b c3 6a 83 be
       -0.30942407 0.24856678 0.005420804 -0.2566739
000200 7a d8 7b be 35 5b a0 be 58 a7 13 bd d8 99 19 be
       -0.24594298 -0.31319585 -0.036048263 -0.15000093
000210 77 a6 1c be 6e 32 07 3e 8c 6a 22 be 88 aa 53 3d
       -0.15297876 0.13202831 -0.15860957 0.051676303
000220 06 e4 cc bd 3a f6 7a be 86 d0 13 3e ec 03 a2 3d
       -0.100044295 -0.2450799 0.14435014 0.07910904
000230 0b d8 9c be 36 5c 9a be 8b 68 1c be 59 3a 98 3e
       -0.30633578 -0.30148476 -0.15274255 0.29732016
000240 20 e9 45 bc e4 ca 04 be 60 be 77 3c af 0f 87 3e
       -0.012079507 -0.12968022 0.0151210725 0.26379153
000250 9c 91 9e be 78 3a a2 3d 8e 65 91 be b8 d8 ee 3d
       -0.30970466 0.07921308 -0.28397793 0.116624296
000260 c0 40 5f 3c c1 ae 90 3e 66 50 5d 3e 2c 64 84 3d
       0.013626277 0.28258327 0.21612701 0.06464419
000270 8a ec 90 be 4d 0f 03 be 92 87 4c 3e dc 21 8b bd
       -0.28305465 -0.12798806 0.19973591 -0.067935675

l1.bias f4 [16]
000000 5d d5 a6 3e 83 cc 1b be 3f 83 6d be df c2 0f be
       0.32584658 -0.15214734 -0.23194598 -0.14039181
000010 63 d8 86 be 5b f8 1a be 1a 77 bb bc 36 f7 b9 3e
       -0.26336965 -0.15133803 -0.02288394 0.3632142
000020 28 39 49 be b5 5c ba bd 53 60 34 3e d0 d0 59 3e
       -0.1965071 -0.09099714 0.1761487 0.21271062
000030 2c db 94 3d ce 67 bf bd 60 d5 62 3c cc aa 27 3e
       0.07268366 -0.09345971 0.013844818 0.16373748

l2.weight f4 [16, 16]
000000 86 ae 29 3f 7c b7 a4 3d 45 30 9b bc 50 08 ba be
       0.66281927 0.08042809 -0.018943915 -0.36334467
000010 70 fd 10 3e 22 ef 6e 3e a7 82 64 3f df fd fa 3d
       0.14159179 0.2333341 0.8926186 0.12255453
000020 8c 04 80 3d 7b 34 06 3f 4f b7 ac bd 5d 4e 1c bf
       0.06250867 0.5242383 -0.08433401 -0.6105707
000030 44 58 6f 3e 92 5a 7e 3e 0a fd 0d be 00 b1 44 3d
       0.23373514 0.24839237 -0.13866058 0.048020363
000040 e4 7b 32 3f e0 0d 62 3c e8 05 8c be ed 6e a3 3e
       0.6972029 0.013797253 -0.27348256 0.31920567
000050 94 1c db 3d 1c fb 3d 3e 6c 37 4c bf 7e e5 57 bd
       0.1069881 0.18552822 -0.7977207 -0.052709095
000060 e0 29 72 bc 42 f9 3b 3f ea 03 15 be e8 f0 39 be
       -0.014780492 0.7342721 -0.14552274 -0.18158305
000070 6c 6f cc 3d 70 d6 5d 3d a4 9b 77 3e 80 c8 a2 bb
       0.099821895 0.05415958 0.24180466 -0.004967749
000080 3d 35 55 3f 2a f5 01 be 13 6f 0d be 5f 49 08 bf
       0.8328436 -0.12691179 -0.13811903 -0.53236955
000090 38 15 85 3d fe 03 15 3e 1c 17 64 3f 85 61 ca be
       0.06498188 0.14552304 0.8909776 -0.39527526
0000a0 46 f5 1a 3e f7 cb ea 3e 67 2c 43 3e 10 dc d0 be
       0.15132627 0.45858738 0.19059907 -0.40792894
0000b0 80 ef 3f bb 2e be 07 be 88 c6 7c bd b0 dc 97 3c
       -0.002928704 -0.13256142 -0.06171277 0.01853785
0000c0 4f 4d 5e 3f 40 71 99 bb c4 51 dc bc 70 36 dc be
       0.86836714 -0.00468269 -0.026894458 -0.43010283
0000d0 f0 c2 1e 3e 30 0d 05 3d 14 b9 f4 be 8d a4 d6 be
       0.1550405 0.03248328 -0.47797453 -0.41922417
0000e0 98 0f 53 bd 01 0e bf 3e 4a 10 a6 ba c2 b0 54 3e
       -0.051528543 0.37315372 -0.001266965 0.20770553
0000f0 74 b1 56 3e 38 e4 08 3d 18 38 3e 3e b8 42 62 bd
       0.2096613 0.03342077 0.18576086 -0.05523941
000100 b8 cb 12 bd 0a b7 11 be 72 14 68 3e 38 61 20 bd
       -0.035838813 -0.1422998 0.2266405 -0.039155215
000110 90 f2 fc 3d c0 be fd bc 96 d9 2f 3e 10 29 e4 bc
       0.123509526 -0.030974746 0.17172846 -0.027851611
000120 60 e2 30 3c b4 fd 56 be a2 54 4d be c0 e0 49 3c
       0.0107961595 -0.20995218 -0.20051816 0.012321651
000130 3c 67 7f 3e 80 bc ef bc 00 98 ff 3a ac a6 4b 3e
       0.24941725 -0.029264688 0.0019500256 0.19887799
000140 45 d0 e8 3e ec 82 d4 3d 64 43 41 be a0 64 b1 be
       0.45471397 0.10376534 -0.18873364 -0.34647083
000150 20 38 59 3d 54 8a d8 bd c7 51 56 3f 7b 25 75 3e
       0.05303204 -0.10573259 0.8371853 0.23940079
000160 24 09 1c 3e b1 86 92 bd be c7 7a 3e 29 73 8f be
       0.15237862 -0.071545966 0.24490258 -0.28017548
000170 cc 1e bc bd 40 1f d0 3c e0 23 31 3d 30 dd 72 3e
       -0.091855615 0.025405526 0.043247104 0.23717189
000180 7b 28 21 be 36 fa 1c 3e ff a8 89 3d 4b 69 41 be
       -0.15738098 0.15329823 0.067216866 -0.18887822
000190 d8 0a 71 be b2 4f 7f 3e 6f f1 04 3d a6 2e 2a 3e
       -0.23539293 0.24932745 0.03245681 0.16619357
0001a0 e0 05 be bc 45 3d 66 be 1d 29 81 3d 9f ba a2 3d
       -0.02319616 -0.2248431 0.0630667 0.079457514
0001b0 22 89 70 be 70 a8 e8 bc b4 ca 41 be 2e 63 7d be
       -0.23489812 -0.02840063 -0.18924981 -0.24744865
0001c0 2c 60 35 be ca 67 43 be f0 66 0d 3e 44 a5 29 be
       -0.17712468 -0.19082561 0.13808799 -0.1656695
0001d0 88 30 6b be 40 94 59 bd b8 6b 9e bd bc e2 14 3e
       -0.22967732 -0.053119898 -0.077353895 0.14539617
0001e0 ec 34 f0 bd 84 0a 84 3d 10 d3 5b bd 80 5b 25 3d
       -0.11728844 0.06447318 -0.05366808 0.040370464
0001f0 1a c0 41 3e 28 b1 69 3d 90 a4 bd bc 14 25 e4 3d
       0.18920937 0.057053715 -0.023149759 0.111398846
000200 b7 4d 56 3f 80 9a 4d 3c 6e e1 1e 3e 7c 34 87 bd
       0.83712333 0.012549043 0.15515682 -0.066018075
000210 f8 d8 3e be c0 35 8e 3c d7 84 16 bf e7 f4 d1 be
       -0.18637455 0.017359614 -0.5879645 -0.41007158
000220 64 ef 9c bd 7e 03 25 3f 92 d3 31 be b6 51 8b 3e
       -0.07662848 0.64458454 -0.17365864 0.27210778
000230 64 6c 84 bd 34 3a 1e be 84 9a 99 3d 24 f1 7b 3e
       -0.06465986 -0.1545189 0.07500175 0.24603707
000240 2b 01 94 3f e0 18 67 be 86 dd 3b 3e a8 6e 99 be
       1.1562856 -0.22568083 0.18346223 -0.29967237
000250 fc b9 18 be 44 ba eb 3d b7 60 80 3f 74 fe 5f be
       -0.14914697 0.11510137 1.0029515 -0.2187441
000260 34 05 a2 3d e0 22 dc 3e 3c f4 1f be 61 7f 0b bf
       0.07911149 0.42995358 -0.15620512 -0.5449124
000270 e8 e0 4a 3d 44 6c 89 3d 60 3c 8d 3c ae 00 46 be
       0.049530894 0.06710103 0.017240703 -0.19336197
000280 3e d7 0b bf 88 85 35 be ac a7 ec bd e3 e6 07 3f
       -0.5462531 -0.1772672 -0.11555418 0.5308668
000290 3c 18 b5 3d ca d8 16 3e 6d de 13 bf 15 c7 2a 3f
       0.08842513 0.14731136 -0.5776127 0.66710025
0002a0 f0 2c 68 bd d6 5f 13 be 80 0c 09 3f 1c 88 67 3f
       -0.05668348 -0.14392027 0.535347 0.9044206
0002b0 c6 18 43 be a2 a4 34 3e 60 d0 28 bd 78 07 3b 3d
       -0.19052419 0.17640927 -0.041214347 0.04566142
0002c0 be 32 27 bf 24 cf dc bd cf d8 9d bd 76 44 3b 3f
       -0.653118 -0.107816964 -0.077073686 0.7315134
0002d0 d8 13 b7 3d 9c 8d 8d 3d 08 80 08 3f 46 7e 40 3f
       0.08939332 0.069117755 0.5332036 0.7519268
0002e0 e8 c0 ab 3d ca cd fb be e6 75 11 3f 43 ee 17 3f
       0.08386403 -0.49180442 0.56820524 0.59347934
0002f0 d0 40 96 3d f4 f3 83 3d 00 06 bd 3b 56 81 5e be
       0.07336581 0.06443015 0.0057685375 -0.21729025
000300 42 29 55 3f 68 72 5b bd 2d 9a fe 3d 5e 55 2d be
       0.8326608 -0.053575903 0.124317504 -0.16927096
000310 30 d9 05 bd f2 45 55 3e b0 03 18 bf e1 e5 9d be
       -0.03267783 0.20827463 -0.59380627 -0.30839446
000320 c8 78 04 be 3c 5a 31 3f dd ee 4a bd 75 d5 a2 3d
       -0.129367 0.6927831 -0.049544204 0.0795087
000330 da 63 0e 3e 28 a9 82 bd 76 31 76 3e 90 a9 91 bc
       0.13905278 -0.0637992 0.24042305 -0.017781049
000340 55 50 a9 bc 44 67 ff bd 87 a6 16 bb 87 68 27 3d
       -0.020668188 -0.12470868 -0.0022987442 0.04087117
000350 88 6d 5b 3e 08 fc 97 3d 45 92 db 3c ff ec 66 be
       0.21428502 0.07421118 0.026803145 -0.22551344
000360 2c ec 07 be 37 65 64 bd 72 44 15 bd 92 26 0a 3e
       -0.13273686 -0.05576059 -0.036442228 0.13491276
000370 2c 37 aa 3d 60 df a0 bc 66 4c 4f 3e 7c dd a5 3d
       0.083113045 -0.019637764 0.20243987 0.080988854
000380 b8 b8 80 bd 40 24 39 be 6e 22 57 3e 40 ab 56 3d
       -0.06285232 -0.18080235 0.21009228 0.05240941
000390 f8 92 ed 3d fa 00 78 be 60 b5 78 3e e8 7e f1 3d
       0.11600298 -0.24219123 0.24287939 0.117917836
0003a0 c0 5a e5 3d 2c c3 77 be 7c 4a 4d be 90 03 5b be
       0.1119895 -0.24195546 -0.20047945 -0.21388078
0003b0 b8 23 e6 bd 5c c5 cc 3d 2a 4f 43 3e e0 53 62 3c
       -0.112372816 0.09998581 0.19073167 0.013813943
0003c0 20 43 09 be ec 9a 81 3d 00 d2 85 bd a8 32 8c bd
       -0.13404512 0.06328377 -0.06534195 -0.068455994
0003d0 00 e0 e9 ba 4c 1d 3a 3e 70 9e 77 3e b0 c0 bf 3c
       -0.0017843246 0.18175238 0.24181533 0.02340731
0003e0 78 73 36 3e 4c 68 7f be e0 44 1d bd f0 49 8f 3c
       0.17817485 -0.2494213 -0.038395762 0.01749131
0003f0 38 26 1b 3d 68 c5 86 3d 9c 20 be 3d 3e 84 00 be
       0.037878245 0.06580621 0.092835635 -0.12550446

l2.bias f4 [16]
000000 d6 a3 d1 3d 73 8c d8 3e 04 47 3d bd 4f 36 74 3e
       0.10236327 0.42294654 -0.046210304 0.23848842
000010 94 91 cf 3d 64 83 30 be c0 87 53 be 70 64 3a be
       0.10135189 -0.17237622 -0.20657253 -0.18202376
000020 31 d3 cc 3e 9a 7e ce 3e e7 0f 05 3e a3 c3 87 3e
       0.40004876 0.40330964 0.12994348 0.26516446
000030 d0 04 d3 3e a5 3d 35 3e 10 20 84 bc 9e 76 08 be
       0.4121461 0.17699297 -0.01612857 -0.13326499

l3.weight f4 [4, 16]
000000 03 64 2b 3f ea 2b cb 3c 12 14 33 3e ed 3b 2f bf
       0.6694948 0.024801213 0.17488125 -0.68450814
000010 c0 e9 ac 3d e0 6e a6 3e cd 2c 06 3e 00 45 03 3b
       0.08443022 0.32506466 0.13103028 0.002003014
000020 9c 28 db be 16 f3 a8 3e 23 09 71 bd d9 79 60 3e
       -0.4280442 0.3299796 -0.058846604 0.21921481
000030 22 e8 21 bd 41 23 16 3e 38 8a be bd 60 f2 61 bd
       -0.03952802 0.14661886 -0.09303707 -0.055162787
000040 c7 17 51 bf 67 33 19 3f fe 23 10 bf d4 19 49 3e
       -0.81676906 0.5984406 -0.5630492 0.19638759
000050 ce 0c 55 be 82 10 02 bf 80 43 65 3e 20 7d 90 3c
       -0.20805666 -0.5080644 0.2238903 0.01763779
000060 72 c7 29 3f a6 cc 6d bf 0f 06 b6 3e c9 8d 46 be
       0.66319954 -0.92890394 0.35551497 -0.19390024
000070 74 1b 2a 3f 26 ab 2c 3e da 85 12 3e c0 9d a8 3b
       0.6644814 0.16862163 0.14308873 0.0051457584
000080 c7 7f 35 bf f0 fd 55 bf 2d 4c 1e bf 5f f0 bd be
       -0.708981 -0.835906 -0.61834985 -0.3709745
000090 c8 8e 11 bd 00 36 91 3e 05 82 52 3c c2 21 1f be
       -0.035536557 0.2836151 0.012848382 -0.15540221
0000a0 9c d4 51 bf fe ad ba bf 8d 51 03 3f 12 7c 36 3f
       -0.8196504 -1.4584348 0.5129631 0.71283066
0000b0 1b 74 28 bf 36 90 be 3c 20 a0 22 3c a0 55 80 3d
       -0.6580216 0.023262125 0.009925872 0.06266332
0000c0 93 d0 e4 3e de ca 37 be 5a 7d 1f 3f 11 e6 b7 3e
       0.4469038 -0.17948481 0.62300646 0.35917714
0000d0 ee e8 27 3e 99 6c c4 3e 0d d0 9c 3c d8 2c 32 3d
       0.1639745 0.38364103 0.019142175 0.043499798
0000e0 47 fd da 3e c5 e8 81 3f 5c 05 43 bf cd 0f 49 bf
       0.4277136 1.0149161 -0.7618005 -0.78539735
0000f0 de 84 0c 3f 33 f6 2a be 60 91 26 3c 96 9d 4b 3e
       0.5489024 -0.1669548 0.010166496 0.19884333

l3.bias f4 [4]
000000 da 14 f9 bc b0 3a 95 3d eb 94 4f be b7 97 51 be
       -0.03040545 0.072865844 -0.20271651 -0.20468031
